…
     "iopub.execute_input": "2025-07-26T17:58:17.946556Z",
     "iopub.status.busy": "2025-07-26T17:58:17.946110Z",
     "iopub.status.idle": "2025-07-26T17:58:18.353827Z",
     "shell.execute_reply": "2025-07-26T17:58:18.353036Z"
    },
    "papermill": {
     "duration": 0.417994,
     "end_time": "2025-07-26T17:58:18.355153",
     "exception": false,
     "start_time": "2025-07-26T17:58:17.937159",
     "status": "completed"
    },
    "tags": []
   },
   "outputs": [
    {
     "data": {
      "text/plain": [
       "RegNetWithAttentionAndSoftmax(\n",
       "  (backbone): Sequential(\n",
       "    (0): SimpleStemIN(\n",
       "      (0): Conv2d(1, 32, kernel_size=(3, 3), stride=(2, 2), padding=(1, 1), bias=False)\n",
       "      (1): BatchNorm2d(32, eps=1e-05, momentum=0.1, affine=True, track_running_stats=True)\n",
       "      (2): ReLU(inplace=True)\n",
       "    )\n",
       "    (1): Sequential(\n",
       "      (block1): AnyStage(\n",
       "        (block1-0): ResBottleneckBlock(\n",
       "          (proj): Conv2dNormActivation(\n",
       "            (0): Conv2d(32, 48, kernel_size=(1, 1), stride=(2, 2), bias=False)\n",
       "            (1): BatchNorm2d(48, eps=1e-05, momentum=0.1, affine=True, track_running_stats=True)\n",
       "          )\n",
       "          (f): BottleneckTransform(\n",
       "            (a): Conv2dNormActivation(\n",
       "              (0): Conv2d(32, 48, kernel_size=(1, 1), stride=(1, 1), bias=False)\n",
       "              (1): BatchNorm2d(48, eps=1e-05, momentum=0.1, affine=True, track_running_stats=True)\n",
       "              (2): ReLU(inplace=True)\n",
       "            )\n",
       "            (b): Conv2dNormActivation(\n",
       "              (0): Conv2d(48, 48, kernel_size=(3, 3), stride=(2, 2), padding=(1, 1), groups=6, bias=False)\n",
       "              (1): BatchNorm2d(48, eps=1e-05, momentum=0.1, affine=True, track_running_stats=True)\n",
       "              (2): ReLU(inplace=True)\n",
       "            )\n",
       "            (se): SqueezeExcitation(\n",
       "              (avgpool): AdaptiveAvgPool2d(output_size=1)\n",
       "              (fc1): Conv2d(48, 8, kernel_size=(1, 1), stride=(1, 1))\n",
       "              (fc2): Conv2d(8, 48, kernel_size=(1, 1), stride=(1, 1))\n",
       "              (activation): ReLU()\n",
       "              (scale_activation): Sigmoid()\n",
       "            )\n",
       "            (c): Conv2dNormActivation(\n",
       "              (0): Conv2d(48, 48, kernel_size=(1, 1), stride=(1, 1), bias=False)\n",
       "              (1): BatchNorm2d(48, eps=1e-05, momentum=0.1, affine=True, track_running_stats=True)\n",
       "            )\n",
       "          )\n",
       "          (activation): ReLU(inplace=True)\n",
       "        )\n",
       "      )\n",
       "      (block2): AnyStage(\n",
       "        (block2-0): ResBottleneckBlock(\n",
       "          (proj): Conv2dNormActivation(\n",
       "            (0): Conv2d(48, 104, kernel_size=(1, 1), stride=(2, 2), bias=False)\n",
       "            (1): BatchNorm2d(104, eps=1e-05, momentum=0.1, affine=True, track_running_stats=True)\n",
       "          )\n",
       "          (f): BottleneckTransform(\n",
       "            (a): Conv2dNormActivation(\n",
       "              (0): Conv2d(48, 104, kernel_size=(1, 1), stride=(1, 1), bias=False)\n",
       "              (1): BatchNorm2d(104, eps=1e-05, momentum=0.1, affine=True, track_running_stats=True)\n",
       "              (2): ReLU(inplace=True)\n",
       "            )\n",
       "            (b): Conv2dNormActivation(\n",
       "              (0): Conv2d(104, 104, kernel_size=(3, 3), stride=(2, 2), padding=(1, 1), groups=13, bias=False)\n",
       "              (1): BatchNorm2d(104, eps=1e-05, momentum=0.1, affine=True, track_running_stats=True)\n",
       "              (2): ReLU(inplace=True)\n",
       "            )\n",
       "            (se): SqueezeExcitation(\n",
       "              (avgpool): AdaptiveAvgPool2d(output_size=1)\n",
       "              (fc1): Conv2d(104, 12, kernel_size=(1, 1), stride=(1, 1))\n",
       "              (fc2): Conv2d(12, 104, kernel_size=(1, 1), stride=(1, 1))\n",
       "              (activation): ReLU()\n",
       "              (scale_activation): Sigmoid()\n",
       "            )\n",
       "            (c): Conv2dNormActivation(\n",
       "              (0): Conv2d(104, 104, kernel_size=(1, 1), stride=(1, 1), bias=False)\n",
       "              (1): BatchNorm2d(104, eps=1e-05, momentum=0.1, affine=True, track_running_stats=True)\n",
       "            )\n",
       "          )\n",
       "          (activation): ReLU(inplace=True)\n",
       "        )\n",
       "        (block2-1): ResBottleneckBlock(\n",
       "          (f): BottleneckTransform(\n",
       "            (a): Conv2dNormActivation(\n",
       "              (0): Conv2d(104, 104, kernel_size=(1, 1), stride=(1, 1), bias=False)\n",
       "              (1): BatchNorm2d(104, eps=1e-05, momentum=0.1, affine=True, track_running_stats=True)\n",
       "              (2): ReLU(inplace=True)\n",
       "            )\n",
       "            (b): Conv2dNormActivation(\n",
       "              (0): Conv2d(104, 104, kernel_size=(3, 3), stride=(1, 1), padding=(1, 1), groups=13, bias=False)\n",
       "              (1): BatchNorm2d(104, eps=1e-05, momentum=0.1, affine=True, track_running_stats=True)\n",
       "              (2): ReLU(inplace=True)\n",
       "            )\n",
       "            (se): SqueezeExcitation(\n",
       "              (avgpool): AdaptiveAvgPool2d(output_size=1)\n",
       "              (fc1): Conv2d(104, 26, kernel_size=(1, 1), stride=(1, 1))\n",
       "              (fc2): Conv2d(26, 104, kernel_size=(1, 1), stride=(1, 1))\n",
       "              (activation): ReLU()\n",
       "              (scale_activation): Sigmoid()\n",
       "            )\n",
       "            (c): Conv2dNormActivation(\n",
       "              (0): Conv2d(104, 104, kernel_size=(1, 1), stride=(1, 1), bias=False)\n",
       "              (1): BatchNorm2d(104, eps=1e-05, momentum=0.1, affine=True, track_running_stats=True)\n",
       "            )\n",
       "          )\n",
       "          (activation): ReLU(inplace=True)\n",
       "        )\n",
       "        (block2-2): ResBottleneckBlock(\n",
       "          (f): BottleneckTransform(\n",
       "            (a): Conv2dNormActivation(\n",
       "              (0): Conv2d(104, 104, kernel_size=(1, 1), stride=(1, 1), bias=False)\n",
       "              (1): BatchNorm2d(104, eps=1e-05, momentum=0.1, affine=True, track_running_stats=True)\n",
       "              (2): ReLU(inplace=True)\n",
       "            )\n",
       "            (b): Conv2dNormActivation(\n",
       "              (0): Conv2d(104, 104, kernel_size=(3, 3), stride=(1, 1), padding=(1, 1), groups=13, bias=False)\n",
       "              (1): BatchNorm2d(104, eps=1e-05, momentum=0.1, affine=True, track_running_stats=True)\n",
       "              (2): ReLU(inplace=True)\n",
       "            )\n",
       "            (se): SqueezeExcitation(\n",
       "              (avgpool): AdaptiveAvgPool2d(output_size=1)\n",
       "              (fc1): Conv2d(104, 26, kernel_size=(1, 1), stride=(1, 1))\n",
       "              (fc2): Conv2d(26, 104, kernel_size=(1, 1), stride=(1, 1))\n",
       "              (activation): ReLU()\n",
       "              (scale_activation): Sigmoid()\n",
       "            )\n",
       "            (c): Conv2dNormActivation(\n",
       "              (0): Conv2d(104, 104, kernel_size=(1, 1), stride=(1, 1), bias=False)\n",
       "              (1): BatchNorm2d(104, eps=1e-05, momentum=0.1, affine=True, track_running_stats=True)\n",
       "            )\n",
       "          )\n",
       "          (activation): ReLU(inplace=True)\n",
       "        )\n",
       "      )\n",
       "      (block3): AnyStage(\n",
       "        (block3-0): ResBottleneckBlock(\n",
       "          (proj): Conv2dNormActivation(\n",
       "            (0): Conv2d(104, 208, kernel_size=(1, 1), stride=(2, 2), bias=False)\n",
       "            (1): BatchNorm2d(208, eps=1e-05, momentum=0.1, affine=True, track_running_stats=True)\n",
       "          )\n",
       "          (f): BottleneckTransform(\n",
       "            (a): Conv2dNormActivation(\n",
       "              (0): Conv2d(104, 208, kernel_size=(1, 1), stride=(1, 1), bias=False)\n",
       "              (1): BatchNorm2d(208, eps=1e-05, momentum=0.1, affine=True, track_running_stats=True)\n",
       "              (2): ReLU(inplace=True)\n",
       "            )\n",
       "            (b): Conv2dNormActivation(\n",
       "              (0): Conv2d(208, 208, kernel_size=(3, 3), stride=(2, 2), padding=(1, 1), groups=26, bias=False)\n",
       "              (1): BatchNorm2d(208, eps=1e-05, momentum=0.1, affine=True, track_running_stats=True)\n",
       "              (2): ReLU(inplace=True)\n",
       "            )\n",
       "            (se): SqueezeExcitation(\n",
       "              (avgpool): AdaptiveAvgPool2d(output_size=1)\n",
       "              (fc1): Conv2d(208, 26, kernel_size=(1, 1), stride=(1, 1))\n",
       "              (fc2): Conv2d(26, 208, kernel_size=(1, 1), stride=(1, 1))\n",
       "              (activation): ReLU()\n",
       "              (scale_activation): Sigmoid()\n",
       "            )\n",
       "            (c): Conv2dNormActivation(\n",
       "              (0): Conv2d(208, 208, kernel_size=(1, 1), stride=(1, 1), bias=False)\n",
       "              (1): BatchNorm2d(208, eps=1e-05, momentum=0.1, affine=True, track_running_stats=True)\n",
       "            )\n",
       "          )\n",
       "          (activation): ReLU(inplace=True)\n",
       "        )\n",
       "        (block3-1): ResBottleneckBlock(\n",
       "          (f): BottleneckTransform(\n",
       "            (a): Conv2dNormActivation(\n",
       "              (0): Conv2d(208, 208, kernel_size=(1, 1), stride=(1, 1), bias=False)\n",
       "              (1): BatchNorm2d(208, eps=1e-05, momentum=0.1, affine=True, track_running_stats=True)\n",
       "              (2): ReLU(inplace=True)\n",
       "            )\n",
       "            (b): Conv2dNormActivation(\n",
       "              (0): Conv2d(208, 208, kernel_size=(3, 3), stride=(1, 1), padding=(1, 1), groups=26, bias=False)\n",
       "              (1): BatchNorm2d(208, eps=1e-05, momentum=0.1, affine=True, track_running_stats=True)\n",
       "              (2): ReLU(inplace=True)\n",
       "            )\n",
       "            (se): SqueezeExcitation(\n",
       "              (avgpool): AdaptiveAvgPool2d(output_size=1)\n",
       "              (fc1): Conv2d(208, 52, kernel_size=(1, 1), stride=(1, 1))\n",
       "              (fc2): Conv2d(52, 208, kernel_size=(1, 1), stride=(1, 1))\n",
       "              (activation): ReLU()\n",
       "              (scale_activation): Sigmoid()\n",
       "            )\n",
       "            (c): Conv2dNormActivation(\n",
       "              (0): Conv2d(208, 208, kernel_size=(1, 1), stride=(1, 1), bias=False)\n",
       "              (1): BatchNorm2d(208, eps=1e-05, momentum=0.1, affine=True, track_running_stats=True)\n",
       "            )\n",
       "          )\n",
       "          (activation): ReLU(inplace=True)\n",
       "        )\n",
       "        (block3-2): ResBottleneckBlock(\n",
       "          (f): BottleneckTransform(\n",
       "            (a): Conv2dNormActivation(\n",
       "              (0): Conv2d(208, 208, kernel_size=(1, 1), stride=(1, 1), bias=False)\n",
       "              (1): BatchNorm2d(208, eps=1e-05, momentum=0.1, affine=True, track_running_stats=True)\n",
       "              (2): ReLU(inplace=True)\n",
       "            )\n",
       "            (b): Conv2dNormActivation(\n",
       "              (0): Conv2d(208, 208, kernel_size=(3, 3), stride=(1, 1), padding=(1, 1), groups=26, bias=False)\n",
       "              (1): BatchNorm2d(208, eps=1e-05, momentum=0.1, affine=True, track_running_stats=True)\n",
       "              (2): ReLU(inplace=True)\n",
       "            )\n",
       "            (se): SqueezeExcitation(\n",
       "              (avgpool): AdaptiveAvgPool2d(output_size=1)\n",
       "              (fc1): Conv2d(208, 52, kernel_size=(1, 1), stride=(1, 1))\n",
       "              (fc2): Conv2d(52, 208, kernel_size=(1, 1), stride=(1, 1))\n",
       "              (activation): ReLU()\n",
       "              (scale_activation): Sigmoid()\n",
       "            )\n",
       "            (c): Conv2dNormActivation(\n",
       "              (0): Conv2d(208, 208, kernel_size=(1, 1), stride=(1, 1), bias=False)\n",
       "              (1): BatchNorm2d(208, eps=1e-05, momentum=0.1, affine=True, track_running_stats=True)\n",
       "            )\n",
       "          )\n",
       "          (activation): ReLU(inplace=True)\n",
       "        )\n",
       "        (block3-3): ResBottleneckBlock(\n",
       "          (f): BottleneckTransform(\n",
       "            (a): Conv2dNormActivation(\n",
       "              (0): Conv2d(208, 208, kernel_size=(1, 1), stride=(1, 1), bias=False)\n",
       "              (1): BatchNorm2d(208, eps=1e-05, momentum=0.1, affine=True, track_running_stats=True)\n",
       "              (2): ReLU(inplace=True)\n",
       "            )\n",
       "            (b): Conv2dNormActivation(\n",
       "              (0): Conv2d(208, 208, kernel_size=(3, 3), stride=(1, 1), padding=(1, 1), groups=26, bias=False)\n",
       "              (1): BatchNorm2d(208, eps=1e-05, momentum=0.1, affine=True, track_running_stats=True)\n",
       "              (2): ReLU(inplace=True)\n",
       "            )\n",
       "            (se): SqueezeExcitation(\n",
       "              (avgpool): AdaptiveAvgPool2d(output_size=1)\n",
       "              (fc1): Conv2d(208, 52, kernel_size=(1, 1), stride=(1, 1))\n",
       "              (fc2): Conv2d(52, 208, kernel_size=(1, 1), stride=(1, 1))\n",
       "              (activation): ReLU()\n",
       "              (scale_activation): Sigmoid()\n",
       "            )\n",
       "            (c): Conv2dNormActivation(\n",
       "              (0): Conv2d(208, 208, kernel_size=(1, 1), stride=(1, 1), bias=False)\n",
       "              (1): BatchNorm2d(208, eps=1e-05, momentum=0.1, affine=True, track_running_stats=True)\n",
       "            )\n",
       "          )\n",
       "          (activation): ReLU(inplace=True)\n",
       "        )\n",
       "        (block3-4): ResBottleneckBlock(\n",
       "          (f): BottleneckTransform(\n",
       "            (a): Conv2dNormActivation(\n",
       "              (0): Conv2d(208, 208, kernel_size=(1, 1), stride=(1, 1), bias=False)\n",
       "              (1): BatchNorm2d(208, eps=1e-05, momentum=0.1, affine=True, track_running_stats=True)\n",
       "              (2): ReLU(inplace=True)\n",
       "            )\n",
       "            (b): Conv2dNormActivation(\n",
       "              (0): Conv2d(208, 208, kernel_size=(3, 3), stride=(1, 1), padding=(1, 1), groups=26, bias=False)\n",
       "              (1): BatchNorm2d(208, eps=1e-05, momentum=0.1, affine=True, track_running_stats=True)\n",
       "              (2): ReLU(inplace=True)\n",
       "            )\n",
       "            (se): SqueezeExcitation(\n",
       "              (avgpool): AdaptiveAvgPool2d(output_size=1)\n",
       "              (fc1): Conv2d(208, 52, kernel_size=(1, 1), stride=(1, 1))\n",
       "              (fc2): Conv2d(52, 208, kernel_size=(1, 1), stride=(1, 1))\n",
       "              (activation): ReLU()\n",
       "              (scale_activation): Sigmoid()\n",
       "            )\n",
       "            (c): Conv2dNormActivation(\n",
       "              (0): Conv2d(208, 208, kernel_size=(1, 1), stride=(1, 1), bias=False)\n",
       "              (1): BatchNorm2d(208, eps=1e-05, momentum=0.1, affine=True, track_running_stats=True)\n",
       "            )\n",
       "          )\n",
       "          (activation): ReLU(inplace=True)\n",
       "        )\n",
       "        (block3-5): ResBottleneckBlock(\n",
       "          (f): BottleneckTransform(\n",
       "            (a): Conv2dNormActivation(\n",
       "              (0): Conv2d(208, 208, kernel_size=(1, 1), stride=(1, 1), bias=False)\n",
       "              (1): BatchNorm2d(208, eps=1e-05, momentum=0.1, affine=True, track_running_stats=True)\n",
       "              (2): ReLU(inplace=True)\n",
       "            )\n",
       "            (b): Conv2dNormActivation(\n",
       "              (0): Conv2d(208, 208, kernel_size=(3, 3), stride=(1, 1), padding=(1, 1), groups=26, bias=False)\n",
       "              (1): BatchNorm2d(208, eps=1e-05, momentum=0.1, affine=True, track_running_stats=True)\n",
       "              (2): ReLU(inplace=True)\n",
       "            )\n",
       "            (se): SqueezeExcitation(\n",
       "              (avgpool): AdaptiveAvgPool2d(output_size=1)\n",
       "              (fc1): Conv2d(208, 52, kernel_size=(1, 1), stride=(1, 1))\n",
       "              (fc2): Conv2d(52, 208, kernel_size=(1, 1), stride=(1, 1))\n",
       "              (activation): ReLU()\n",
       "              (scale_activation): Sigmoid()\n",
       "            )\n",
       "            (c): Conv2dNormActivation(\n",
       "              (0): Conv2d(208, 208, kernel_size=(1, 1), stride=(1, 1), bias=False)\n",
       "              (1): BatchNorm2d(208, eps=1e-05, momentum=0.1, affine=True, track_running_stats=True)\n",
       "            )\n",
       "          )\n",
       "          (activation): ReLU(inplace=True)\n",
       "        )\n",
       "      )\n",
       "      (block4): AnyStage(\n",
       "        (block4-0): ResBottleneckBlock(\n",
       "          (proj): Conv2dNormActivation(\n",
       "            (0): Conv2d(208, 440, kernel_size=(1, 1), stride=(2, 2), bias=False)\n",
       "            (1): BatchNorm2d(440, eps=1e-05, momentum=0.1, affine=True, track_running_stats=True)\n",
       "          )\n",
       "          (f): BottleneckTransform(\n",
       "            (a): Conv2dNormActivation(\n",
       "              (0): Conv2d(208, 440, kernel_size=(1, 1), stride=(1, 1), bias=False)\n",
       "              (1): BatchNorm2d(440, eps=1e-05, momentum=0.1, affine=True, track_running_stats=True)\n",
       "              (2): ReLU(inplace=True)\n",
       "            )\n",
       "            (b): Conv2dNormActivation(\n",
       "              (0): Conv2d(440, 440, kernel_size=(3, 3), stride=(2, 2), padding=(1, 1), groups=55, bias=False)\n",
       "              (1): BatchNorm2d(440, eps=1e-05, momentum=0.1, affine=True, track_running_stats=True)\n",
       "              (2): ReLU(inplace=True)\n",
       "            )\n",
       "            (se): SqueezeExcitation(\n",
       "              (avgpool): AdaptiveAvgPool2d(output_size=1)\n",
       "              (fc1): Conv2d(440, 52, kernel_size=(1, 1), stride=(1, 1))\n",
       "              (fc2): Conv2d(52, 440, kernel_size=(1, 1), stride=(1, 1))\n",
       "              (activation): ReLU()\n",
       "              (scale_activation): Sigmoid()\n",
       "            )\n",
       "            (c): Conv2dNormActivation(\n",
       "              (0): Conv2d(440, 440, kernel_size=(1, 1), stride=(1, 1), bias=False)\n",
       "              (1): BatchNorm2d(440, eps=1e-05, momentum=0.1, affine=True, track_running_stats=True)\n",
       "            )\n",
       "          )\n",
       "          (activation): ReLU(inplace=True)\n",
       "        )\n",
       "        (block4-1): ResBottleneckBlock(\n",
       "          (f): BottleneckTransform(\n",
       "            (a): Conv2dNormActivation(\n",
       "              (0): Conv2d(440, 440, kernel_size=(1, 1), stride=(1, 1), bias=False)\n",
       "              (1): BatchNorm2d(440, eps=1e-05, momentum=0.1, affine=True, track_running_stats=True)\n",
       "              (2): ReLU(inplace=True)\n",
       "            )\n",
       "            (b): Conv2dNormActivation(\n",
       "              (0): Conv2d(440, 440, kernel_size=(3, 3), stride=(1, 1), padding=(1, 1), groups=55, bias=False)\n",
       "              (1): BatchNorm2d(440, eps=1e-05, momentum=0.1, affine=True, track_running_stats=True)\n",
       "              (2): ReLU(inplace=True)\n",
       "            )\n",
       "            (se): SqueezeExcitation(\n",
       "              (avgpool): AdaptiveAvgPool2d(output_size=1)\n",
       "              (fc1): Conv2d(440, 110, kernel_size=(1, 1), stride=(1, 1))\n",
       "              (fc2): Conv2d(110, 440, kernel_size=(1, 1), stride=(1, 1))\n",
       "              (activation): ReLU()\n",
       "              (scale_activation): Sigmoid()\n",
       "            )\n",
       "            (c): Conv2dNormActivation(\n",
       "              (0): Conv2d(440, 440, kernel_size=(1, 1), stride=(1, 1), bias=False)\n",
       "              (1): BatchNorm2d(440, eps=1e-05, momentum=0.1, affine=True, track_running_stats=True)\n",
       "            )\n",
       "          )\n",
       "          (activation): ReLU(inplace=True)\n",
       "        )\n",
       "        (block4-2): ResBottleneckBlock(\n",
       "          (f): BottleneckTransform(\n",
       "            (a): Conv2dNormActivation(\n",
       "              (0): Conv2d(440, 440, kernel_size=(1, 1), stride=(1, 1), bias=False)\n",
       "              (1): BatchNorm2d(440, eps=1e-05, momentum=0.1, affine=True, track_running_stats=True)\n",
       "              (2): ReLU(inplace=True)\n",
       "            )\n",
       "            (b): Conv2dNormActivation(\n",
       "              (0): Conv2d(440, 440, kernel_size=(3, 3), stride=(1, 1), padding=(1, 1), groups=55, bias=False)\n",
       "              (1): BatchNorm2d(440, eps=1e-05, momentum=0.1, affine=True, track_running_stats=True)\n",
       "              (2): ReLU(inplace=True)\n",
       "            )\n",
       "            (se): SqueezeExcitation(\n",
       "              (avgpool): AdaptiveAvgPool2d(output_size=1)\n",
       "              (fc1): Conv2d(440, 110, kernel_size=(1, 1), stride=(1, 1))\n",
       "              (fc2): Conv2d(110, 440, kernel_size=(1, 1), stride=(1, 1))\n",
       "              (activation): ReLU()\n",
       "              (scale_activation): Sigmoid()\n",
       "            )\n",
       "            (c): Conv2dNormActivation(\n",
       "              (0): Conv2d(440, 440, kernel_size=(1, 1), stride=(1, 1), bias=False)\n",
       "              (1): BatchNorm2d(440, eps=1e-05, momentum=0.1, affine=True, track_running_stats=True)\n",
       "            )\n",
       "          )\n",
       "          (activation): ReLU(inplace=True)\n",
       "        )\n",
       "        (block4-3): ResBottleneckBlock(\n",
       "          (f): BottleneckTransform(\n",
       "            (a): Conv2dNormActivation(\n",
       "              (0): Conv2d(440, 440, kernel_size=(1, 1), stride=(1, 1), bias=False)\n",
       "              (1): BatchNorm2d(440, eps=1e-05, momentum=0.1, affine=True, track_running_stats=True)\n",
       "              (2): ReLU(inplace=True)\n",
       "            )\n",
       "            (b): Conv2dNormActivation(\n",
       "              (0): Conv2d(440, 440, kernel_size=(3, 3), stride=(1, 1), padding=(1, 1), groups=55, bias=False)\n",
       "              (1): BatchNorm2d(440, eps=1e-05, momentum=0.1, affine=True, track_running_stats=True)\n",
       "              (2): ReLU(inplace=True)\n",
       "            )\n",
       "            (se): SqueezeExcitation(\n",
       "              (avgpool): AdaptiveAvgPool2d(output_size=1)\n",
       "              (fc1): Conv2d(440, 110, kernel_size=(1, 1), stride=(1, 1))\n",
       "              (fc2): Conv2d(110, 440, kernel_size=(1, 1), stride=(1, 1))\n",
       "              (activation): ReLU()\n",
       "              (scale_activation): Sigmoid()\n",
       "            )\n",
       "            (c): Conv2dNormActivation(\n",
       "              (0): Conv2d(440, 440, kernel_size=(1, 1), stride=(1, 1), bias=False)\n",
       "              (1): BatchNorm2d(440, eps=1e-05, momentum=0.1, affine=True, track_running_stats=True)\n",
       "            )\n",
       "          )\n",
       "          (activation): ReLU(inplace=True)\n",
       "        )\n",
       "        (block4-4): ResBottleneckBlock(\n",
       "          (f): BottleneckTransform(\n",
       "            (a): Conv2dNormActivation(\n",
       "              (0): Conv2d(440, 440, kernel_size=(1, 1), stride=(1, 1), bias=False)\n",
       "              (1): BatchNorm2d(440, eps=1e-05, momentum=0.1, affine=True, track_running_stats=True)\n",
       "              (2): ReLU(inplace=True)\n",
       "            )\n",
       "            (b): Conv2dNormActivation(\n",
       "              (0): Conv2d(440, 440, kernel_size=(3, 3), stride=(1, 1), padding=(1, 1), groups=55, bias=False)\n",
       "              (1): BatchNorm2d(440, eps=1e-05, momentum=0.1, affine=True, track_running_stats=True)\n",
       "              (2): ReLU(inplace=True)\n",
       "            )\n",
       "            (se): SqueezeExcitation(\n",
       "              (avgpool): AdaptiveAvgPool2d(output_size=1)\n",
       "              (fc1): Conv2d(440, 110, kernel_size=(1, 1), stride=(1, 1))\n",
       "              (fc2): Conv2d(110, 440, kernel_size=(1, 1), stride=(1, 1))\n",
       "              (activation): ReLU()\n",
       "              (scale_activation): Sigmoid()\n",
       "            )\n",
       "            (c): Conv2dNormActivation(\n",
       "              (0): Conv2d(440, 440, kernel_size=(1, 1), stride=(1, 1), bias=False)\n",
       "              (1): BatchNorm2d(440, eps=1e-05, momentum=0.1, affine=True, track_running_stats=True)\n",
       "            )\n",
       "          )\n",
       "          (activation): ReLU(inplace=True)\n",
       "        )\n",
       "        (block4-5): ResBottleneckBlock(\n",
       "          (f): BottleneckTransform(\n",
       "            (a): Conv2dNormActivation(\n",
       "              (0): Conv2d(440, 440, kernel_size=(1, 1), stride=(1, 1), bias=False)\n",
       "              (1): BatchNorm2d(440, eps=1e-05, momentum=0.1, affine=True, track_running_stats=True)\n",
       "              (2): ReLU(inplace=True)\n",
       "            )\n",
       "            (b): Conv2dNormActivation(\n",
       "              (0): Conv2d(440, 440, kernel_size=(3, 3), stride=(1, 1), padding=(1, 1), groups=55, bias=False)\n",
       "              (1): BatchNorm2d(440, eps=1e-05, momentum=0.1, affine=True, track_running_stats=True)\n",
       "              (2): ReLU(inplace=True)\n",
       "            )\n",
       "            (se): SqueezeExcitation(\n",
       "              (avgpool): AdaptiveAvgPool2d(output_size=1)\n",
       "              (fc1): Conv2d(440, 110, kernel_size=(1, 1), stride=(1, 1))\n",
       "              (fc2): Conv2d(110, 440, kernel_size=(1, 1), stride=(1, 1))\n",
       "              (activation): ReLU()\n",
       "              (scale_activation): Sigmoid()\n",
       "            )\n",
       "            (c): Conv2dNormActivation(\n",
       "              (0): Conv2d(440, 440, kernel_size=(1, 1), stride=(1, 1), bias=False)\n",
       "              (1): BatchNorm2d(440, eps=1e-05, momentum=0.1, affine=True, track_running_stats=True)\n",
       "            )\n",
       "          )\n",
       "          (activation): ReLU(inplace=True)\n",
       "        )\n",
       "      )\n",
       "    )\n",
       "  )\n",
       "  (attention_blocks): ModuleList(\n",
       "    (0-2): 3 x SelfAttentionGate(\n",
       "      (theta): Conv2d(440, 220, kernel_size=(1, 1), stride=(1, 1))\n",
       "      (psi): Conv2d(220, 1, kernel_size=(1, 1), stride=(1, 1))\n",
       "      (W): Conv2d(440, 440, kernel_size=(1, 1), stride=(1, 1))\n",
       "      (sigmoid): Sigmoid()\n",
       "      (relu): ReLU(inplace=True)\n",
       "    )\n",
       "  )\n",
       "  (reg_branches): ModuleList(\n",
       "    (0-2): 3 x Sequential(\n",
       "      (0): Linear(in_features=440, out_features=64, bias=True)\n",
       "      (1): ReLU()\n",
       "      (2): Linear(in_features=64, out_features=2, bias=True)\n",
       "    )\n",
       "  )\n",
       "  (softmax_branch): Sequential(\n",
       "    (0): Linear(in_features=440, out_features=64, bias=True)\n",
       "    (1): ReLU()\n",
       "    (2): Linear(in_features=64, out_features=3, bias=True)\n",
       "  )\n",
       "  (gap): AdaptiveAvgPool2d(output_size=1)\n",
       ")"
      ]
     },
     "execution_count": 23,
     "metadata": {},
     "output_type": "execute_result"
    }
   ],
   "source": [
    "import torch\n",
    "from torchvision.models import resnet18\n",
    "\n",
    "\n",
    "model = RegNetWithAttentionAndSoftmax(num_components=3)\n",
…
